deepchecks/vision/datasets/assets/mnist/mnist_model.pth (torch, 89871 bytes, 8 tensors)

conv1.weight f4 [10, 1, 5, 5]
0	0x3e8250d8	0.25452304
1	0x3e318028	0.17334044
2	0xbd4c4aa5	-0.049875874
3	0x3e6b6387	0.22987185
4	0xbc44a2aa	-0.012001673
5	0x3ddbdb7f	0.10735225
6	0xbd8a57b5	-0.0675501
7	0x3d6f715e	0.058457725
8	0x3e25849d	0.16163869
9	0xbe447a50	-0.19187284
10	0x3e377f6c	0.17919701
11	0x3d313725	0.04326548
12	0x3dc60542	0.096689716
13	0x3d144fe3	0.036209
14	0x3dcaa167	0.09894066
15	0x3c4ae049	0.012382575
16	0x3e4a34ff	0.19746779
17	0x3dccd68b	0.10001858
18	0xb9c99acf	-0.0003845305
19	0x3dcbcf82	0.09951688
20	0xbe134429	-0.1438147
21	0xbd276e27	-0.040876534
22	0xbd474033	-0.04864521
23	0x3e4a794a	0.1977283
24	0xbe24892a	-0.16067949
25	0xbe03eeb7	-0.12884031
26	0xbe3e5d7a	-0.18590346
27	0xbe7b7b79	-0.2455882
28	0xbcf595b4	-0.02997861
29	0xbe67fe96	-0.2265571
30	0x3e62e086	0.22155961
31	0xbe2aa03f	-0.16662692
32	0x3dee25aa	0.116282776
33	0xbd2efcab	-0.04272143
34	0xbdf4a8de	-0.11946271
35	0x3e7d319e	0.24725959
36	0x3e297498	0.16548383
37	0x3e5cceb7	0.2156323
38	0x3d156955	0.036477406
39	0xbd53cfec	-0.05171196
40	0x3da9a22b	0.08282884
41	0xbce1b1ec	-0.02755066
42	0x3ddcfac0	0.10790014
43	0x3e5f72a8	0.21821082
44	0x3e16c708	0.14724362
45	0xbe8305ba	-0.25590307
46	0x3c024cf3	0.007952916
47	0xbcee1574	-0.029062964
48	0x3e19738a	0.14985481
49	0xbddc7056	-0.10763614
50	0xbdd2d3b8	-0.102942884
51	0x3d9639d5	0.07335249
52	0xbc1a4e49	-0.009418079
53	0x3e4bbbf9	0.19895925
54	0x3d2eb8a7	0.042656567
55	0x3e1c3ff5	0.15258773
56	0x3e45c451	0.1931317
57	0x3d80b6f7	0.06284898
58	0x3df8242a	0.12116273
59	0xbe957c1a	-0.29196244
60	0x3e4a0509	0.19728483
61	0x3d5f2b1e	0.05448448
62	0x3e031110	0.12799478
63	0xbe36fa26	-0.17868862
64	0xbe4cc86d	-0.19998331
65	0x3e1cb5a0	0.1530366
66	0x3e9b2380	0.30300522
67	0xbdb5df21	-0.08880449
68	0xbe7583e5	-0.23976095
69	0xbead1e4e	-0.33812183
70	0x3ea495a2	0.3214541
71	0x3e1e09e9	0.15433468
72	0x3e10d22a	0.14142671
73	0xbeb718fc	-0.3576125
74	0xbefb379d	-0.49065867
75	0xbefbe678	-0.4919927
76	0xbe8fe6df	-0.28105828
77	0x3d2e252a	0.04251591
78	0x3e0f9190	0.14020371
79	0x3e9c0bc1	0.30477718
80	0xbec629e6	-0.3870384
81	0xbe8246a6	-0.25444525
82	0x3de04907	0.10951429
83	0x3d8fd33f	0.07022714
84	0x3ea62b5e	0.32454962
85	0xbe93e277	-0.28883716
86	0x3d74a655	0.05972894
87	0xbd83ea87	-0.06441217
88	0x3d88f280	0.06686878
89	0x3e4407fe	0.19143674
90	0xbe1d430e	-0.1535761
91	0xbdd54560	-0.10413623
92	0x3e1e07ab	0.15432613
93	0x3e7eb618	0.24874151
94	0xbdcab451	-0.09897674
95	0xbe0a7374	-0.13520604
96	0x3e3fffd3	0.18749933
97	0x3cdc6853	0.026905214
98	0x3dc90f5c	0.09817383
99	0xbdf20ee4	-0.118192464
100	0xbedaaf1c	-0.42711723
101	0xbe08662c	-0.13320225
102	0xbd923b9b	-0.07140275
103	0xbe16ca3b	-0.14725582
104	0x3cf1b65e	0.029505905
105	0xbe83ef9c	-0.25768745
106	0xbe9032c4	-0.2816373
107	0xbe4c1def	-0.19933294
108	0xbe6f5adb	-0.23374502
109	0xbe32acaf	-0.17448686
110	0x3ceebd11	0.029142888
111	0xbe00e145	-0.12585934
112	0xbdb0a6f6	-0.08625595
113	0xbe90d5a3	-0.28287992
114	0xbe752fac	-0.23943967
115	0xbd6a55bb	-0.057210665
116	0x3d71976b	0.058982294
117	0xbe4c299e	-0.1993775
118	0xbe3d9eb7	-0.18517576
119	0xbe86b7cd	-0.26312104
120	0x3df53f19	0.119749255
121	0x3d4082a6	0.046999596
122	0x3d07369f	0.033011075
123	0xbe71dc2f	-0.2361915
124	0xbec4142f	-0.3829665
125	0xbe2ff99a	-0.17185059
126	0xbda0249f	-0.07819485
127	0xbdd66168	-0.104677975
128	0x3e14d957	0.14536034
129	0xbc99fff5	-0.018798808
130	0x3d986d51	0.074427254
131	0xbe490cb6	-0.19633755
132	0xbef4b8cd	-0.47797242
133	0xbe3302e6	-0.17481574
134	0xbe488511	-0.19582011
135	0x3c72d9d3	0.014822441
136	0xbe601098	-0.2188133
137	0xbeb154bb	-0.34634957
138	0xbe08c0c1	-0.1335478
139	0xbd132465	-0.03592338
140	0x3e83d38c	0.25747335
141	0x3d887d96	0.066645786
142	0x3e969637	0.2941148
143	0xbd806ccd	-0.06270752
144	0x3df69a32	0.12041129
145	0x3e2be3e3	0.1678615
146	0x3ea2ceb9	0.31798342
147	0x3ebcec40	0.36898994
148	0x3ea9990a	0.33124572
149	0xbbd41efa	-0.0064734193
150	0x3dc77337	0.09738772
151	0xbdc1e98b	-0.09468373
152	0xbd00b414	-0.031421736
153	0xbe0dcac2	-0.13846877
154	0x3e4e722d	0.20160742
155	0xbde89853	-0.113571785
156	0x3e0a84a2	0.13527158
157	0x3d9eb88c	0.07750043
158	0x3c9556f9	0.018229948
159	0xbe2e2783	-0.1700726
160	0x3e513989	0.20432104
161	0x3e170721	0.14748813
162	0x3dc676f4	0.09690657
163	0xbea6b022	-0.32556254
164	0xbd376213	-0.044771265
165	0xbddf97a4	-0.10917595
166	0xbc288079	-0.0102845365
167	0x3eababb4	0.33529437
168	0xbcc862a4	-0.024461098
169	0xbe73b088	-0.2379781
170	0xbead7166	-0.3387558
171	0xbd389c1d	-0.045070756
172	0x3e8bb280	0.27284622
173	0x3d1c52bf	0.03816485
174	0xbe1635f8	-0.14669025
175	0xbd9019d3	-0.070361756
176	0xbe0847d5	-0.13308652
177	0x3dd66921	0.104692705
178	0x3e47803d	0.19482513
179	0xbe51c6bf	-0.20485972
180	0x3dce3410	0.10068524
181	0x3e2c13b0	0.16804385
182	0x3dbf238a	0.093329504
183	0xbe00f18d	-0.12592144
184	0xbda9f843	-0.08299305
185	0x3def0c77	0.11672299
186	0x3dfcc86f	0.12342917
187	0x3d26c576	0.040715657
188	0xbdf10dbc	-0.11770198
189	0xbdf26bb0	-0.11836946
190	0xbd068114	-0.032837942
191	0x3a2f422c	0.00066855806
192	0x3e80e479	0.2517431
193	0x3e8602e1	0.2617407
194	0x3bd78366	0.006576943
195	0xbdcca726	-0.099928185
196	0xbd79aee9	-0.060957823
197	0xbcae39ee	-0.021267857
198	0x3de0b3f1	0.10971821
199	0x3db57ba7	0.088614754
200	0xbe77f11e	-0.24213073
201	0xbe6cda84	-0.23130232
202	0x3d89e9fc	0.06734082
203	0x3e2d872b	0.16946094
204	0x3e6b7c33	0.22996597
205	0xbe0ef087	-0.13958941
206	0xbf0ff080	-0.5622635
207	0xbf1e5d35	-0.6186097
208	0xbe5ef109	-0.21771635
209	0x3e8c33f0	0.27383375
210	0x3ea15566	0.31510466
211	0xbd2655cb	-0.040609162
212	0xbf09c69d	-0.53818685
213	0xbf095461	-0.53644377
214	0xbe6994fe	-0.22810742
215	0x3ec1e531	0.37870172
216	0x3e5bbab2	0.21457937
217	0xbd98392a	-0.07432778
218	0xbe31cc95	-0.17363198
219	0xbeb5a36d	-0.35476246
220	0x3c7e2297	0.015511177
221	0x3eb45276	0.35219163
222	0x3de6e37c	0.11273858
223	0x3d5e88f2	0.05432982
224	0xbe930ce4	-0.28720772
225	0x3e8c1667	0.27360842
226	0x3e86cee1	0.2632971
227	0x3e56e707	0.20986567
228	0x3db957d7	0.09049957
229	0x3de383e0	0.111091375
230	0x3b4672c1	0.00302808
231	0x3ea2f854	0.31830084
232	0x3e9588e9	0.29206017
233	0x3ec86989	0.39143017
234	0x3eab2b43	0.33431444
235	0x3d1c0f08	0.038100272
236	0xbbb0d070	-0.0053959414
237	0xbdfe810c	-0.124269575
238	0xbe10f28c	-0.14155024
239	0xbe502fe8	-0.20330775
240	0xbe1c9339	-0.15290536
241	0xbe98dfda	-0.29858285
242	0xbe82c931	-0.25544122
243	0xbe95e6f7	-0.29277775
244	0xbe85280a	-0.2600711
245	0xbee30c8c	-0.4434551
246	0xbec3d883	-0.38251123
247	0xbe29f63e	-0.1659784
248	0xbe173287	-0.14765368
249	0xbcd1cbcc	-0.025609873

conv1.bias f4 [10]
0	0xbde787e6	-0.113052174
1	0xbda83c02	-0.082145706
2	0xbd912832	-0.07087745
3	0xbe2287fb	-0.15872185
4	0x3a78270c	0.00094662677
5	0xbd92d229	-0.07168991
6	0xbdcb808e	-0.09936629
7	0xbe2faee9	-0.17156567
8	0x3d141624	0.036153927
9	0x3d99cf44	0.07510236

conv2.weight f4 [20, 10, 5, 5]
0	0x3ca78a88	0.020451799
1	0xbd23dacc	-0.040003583
2	0x3b94270e	0.0045212572
3	0xbd60862d	-0.05481546
4	0xbd6ad615	-0.05733307
5	0x3d4f5d21	0.050625924
6	0xbcc8da6e	-0.024518218
7	0xbc4ee8cc	-0.012628745
8	0xbd0240a4	-0.031799927
9	0xbd42563a	-0.047445513
10	0x3c1bf386	0.00951851
11	0xbd79cd5e	-0.06098687
12	0x3d5ce362	0.053927787
13	0x3d3e1d90	0.04641491
14	0x3d8d7391	0.06906808
15	0xbdf6d7a1	-0.12052847
16	0xbe1cf295	-0.15326913
17	0xbd240b0e	-0.040049605
18	0x3c5b44a5	0.013383065
19	0xbd96db83	-0.07366087
20	0xbe03906e	-0.12848064
21	0xbe32ef2d	-0.17474051
22	0xbe0ca92c	-0.13736409
23	0xbe09835b	-0.13429014
24	0xbdbae702	-0.091260925
25	0xbc4fef8d	-0.012691391
26	0xbcffc2b8	-0.031220779
27	0x3dbab2f8	0.09116167
28	0x3df2d086	0.11856179
29	0x3d46f439	0.048572753
30	0xbd003bfb	-0.0313072
31	0xbc9af1d2	-0.018914137
32	0xbd8428e9	-0.064531155
33	0xbcbce2ee	-0.023057427
34	0x3d688d93	0.05677564
35	0xbd93c4a8	-0.072152436
36	0xbd7dd958	-0.061974853
37	0xbbaa301f	-0.0051937248
38	0x3d3ada4d	0.045618344
39	0x3d04e7b3	0.032447528
40	0xbda73d36	-0.08165972
41	0xbe26a78a	-0.16274849
42	0xbdbe6ceb	-0.09298118
43	0xbd2de1ba	-0.042451598
44	0xbd1335ad	-0.03593986
45	0x3d94124b	0.072300516
46	0xbab6dca3	-0.0013951253
47	0x3cf42246	0.0298015
48	0xbd491419	-0.049091432
49	0xbddbe624	-0.10737255
50	0x3d28a2da	0.041170932
51	0x3d9d60ab	0.076844536
52	0xbc402858	-0.011728369
53	0x3ae2511e	0.0017266606
54	0x3da8d4aa	0.082436875
55	0xbca1ec03	-0.01976586
56	0x3d8d365c	0.06895134
57	0x3d8c2a8b	0.06844052
58	0xbd1ff1d3	-0.03904898
59	0x3d9a766a	0.07542117
60	0xbe3fe518	-0.18739736
61	0xbe0b793f	-0.1362047
62	0xbda02199	-0.07818908
63	0xbd3c4ddf	-0.0459727
64	0xbd9ef4b9	-0.07761521
65	0xbe2090ae	-0.15680191
66	0xbe0592b7	-0.13044249
67	0xbe5d8001	-0.21630861
68	0xbe687bca	-0.22703472
69	0xbe0fdb78	-0.14048564
70	0xbc817e88	-0.015807405
71	0x3c5bd2be	0.013416944
72	0xbdfe0e2f	-0.12405049
73	0xbdf50f60	-0.11965823
74	0x3d05ea7b	0.03269432
75	0xbccd8e87	-0.025092376
76	0xbda0a3ab	-0.07843717
77	0xbcf46cd0	-0.029837042
78	0xbba0e4f2	-0.004910105
79	0xbd0146d4	-0.031561688
80	0xbd075152	-0.033036537
81	0x3c9de678	0.019274935
82	0xbd30c224	-0.043153897
83	0xbc258f7e	-0.010105012
84	0xbdd58475	-0.10425655
85	0xbd8ef639	-0.06980557
86	0x3dc14818	0.09437579
87	0xbca4fc5e	-0.02013987
88	0xbc5b1918	-0.013372682
89	0xbdb409b2	-0.08790912
90	0xbd425b70	-0.047450483
91	0x3d6f3096	0.058395945
92	0x3dabec90	0.0839473
93	0x3d8ef6f6	0.06980698
94	0xbe16a2de	-0.14710566
95	0xbe0eec39	-0.139573
96	0xbcb4654d	-0.02202096
97	0xbcd1dc20	-0.02561766
98	0x39919bd9	0.0002777267
99	0xbcb81ba1	-0.022474112
100	0xbda69112	-0.08133139
101	0xbdabc26d	-0.08386693
102	0xbe2d5aec	-0.16929215
103	0xbdd79c39	-0.10527844
104	0xbd929e50	-0.07159102
105	0x3b777a64	0.003776216
106	0xbb24e22d	-0.0025159225
107	0xbe363fe0	-0.17797804
108	0xbe728c6b	-0.23686378
109	0xbda77c8b	-0.081780516
110	0x3d7bb069	0.061447535
111	0x3d12dce5	0.035855193
112	0xbd9ee118	-0.07757777
113	0xbe2b15d2	-0.16707543
114	0xbdffd0c6	-0.12490992
115	0x3d6730d0	0.056443036
116	0x3dc52246	0.09625678
117	0x3df7059e	0.12061618
118	0x39d929a8	0.00041420502
119	0xbc39922b	-0.011326353
120	0x3d87ade6	0.06624965
121	0x3cbf25a4	0.023333378
122	0x3dada635	0.08478967
123	0x3d6ab4d0	0.057301342
124	0x3deea87b	0.11653229
125	0xbcd9ab3d	-0.02657091
126	0xbdba8553	-0.09107461
127	0xbcd2e6c4	-0.025744803
128	0x3d409cb1	0.047024433
129	0x3d83cdee	0.06435762
130	0xbcc25491	-0.023721965
131	0xbd69d9ba	-0.057092406
132	0x3c9ff1cf	0.019524483
133	0x3d71947e	0.058979504
134	0x3dac9d0c	0.08428392
135	0xbdc01faa	-0.093810394
136	0xbdd232e4	-0.10263613
137	0x3c850225	0.016236374
138	0x3d81e3a7	0.06342249
139	0x3e07e55c	0.13271087
140	0x3d9a51b4	0.07535115
141	0x3db61cf7	0.08892243
142	0x3d0835e6	0.033254527
143	0x3d579bab	0.05263869
144	0xbd832546	-0.06403594
145	0x3d98b306	0.07456021
146	0x3e28e559	0.16493739
147	0x3e653255	0.22382481
148	0x3e584e04	0.2112351
149	0x3d39a186	0.045320056
150	0xbd24067a	-0.04004524
151	0x3d97c0a1	0.07409788
152	0x3d9c62f9	0.07636065
153	0x3d5d5311	0.054034296
154	0x3d103454	0.035206154
155	0xbc9c6751	-0.019092234
156	0x3d90fdb5	0.07079641
157	0x3d32e2f9	0.04367349
158	0xbcb1932f	-0.021676628
159	0x3cbbb1f4	0.022912003
160	0xbc9bb075	-0.01900504
161	0xbc8b1420	-0.01697737
162	0xbd2bc8e8	-0.041939646
163	0x3d777663	0.060415637
164	0x3e0dbf58	0.13842523
165	0xbd99b885	-0.075058974
166	0xbe2e85bd	-0.17043205
167	0xbe35b465	-0.17744596
168	0xbdf55feb	-0.119811855
169	0xbd013aec	-0.031550333
170	0x3a8c8ef5	0.0010723757
171	0xbd40ef1b	-0.04710303
172	0xbe327b03	-0.17429738
173	0xbdb5ce79	-0.08877272
174	0xbe0095e1	-0.12557174
175	0x3d2fdadb	0.042933326
176	0x3781d6c6	1.547801e-05
177	0xbbdf61fe	-0.0068171015
178	0x3bae813b	0.005325464
179	0x3cce905f	0.025215326
180	0xbd12c068	-0.035828024
181	0x3d666585	0.05624916
182	0xbcc6c871	-0.0242655
183	0x3d925dae	0.07146774
184	0x3d8fa97e	0.0701475
185	0xbdcb686e	-0.09932028
186	0xbd57419d	-0.052552808
187	0x3c964f3e	0.018348332
188	0x3da6eed9	0.08151025
189	0x3c8650b5	0.016395906
190	0xbe0e6399	-0.13905181
191	0xbe65c8d1	-0.22439887
192	0xbe15df32	-0.14635924
193	0xbcb0af14	-0.021567859
194	0xbd39479a	-0.0452343
195	0xbd27e0f6	-0.040986024
196	0xbda09c8d	-0.0784236
197	0xbd424daa	-0.047437347
198	0xbdf5d793	-0.12004008
199	0xbe4ac5ee	-0.19802067
200	0xbdafa60f	-0.08576595
201	0xbd571ba9	-0.052516613
202	0xbda9ee0c	-0.08297357
203	0xbe1849f3	-0.1487196
204	0xbd30bb13	-0.043147158
205	0xbb444f62	-0.0029954542
206	0xbc2974de	-0.010342805
207	0xbcef1b50	-0.029187828
208	0x3b7a35a4	0.0038178945
209	0x3d0f917c	0.035050854
210	0x3db467f0	0.08808887
211	0x3dbe665e	0.09296869
212	0x3dfde303	0.12396815
213	0x3d861179	0.065463014
214	0x3d7bb788	0.061454326
215	0x3e5d4da7	0.21611653
216	0x3e309b7a	0.1724681
217	0x3da08e59	0.07839651
218	0xbd5d777f	-0.05406904
219	0x3d8cf35d	0.06882355
220	0x3e158acb	0.14603727
221	0x3e786bbc	0.24259847
222	0x3e1dadb8	0.153983
223	0xbba8cba4	-0.005151229
224	0xbd1ce4cf	-0.038304146
225	0xbd5f1e3c	-0.054472193
226	0xbb92fc2c	-0.0044856276
227	0xbdb43a66	-0.08800201
228	0xbd349783	-0.044089805
229	0xbc5429ee	-0.01294945
230	0xbb01aba0	-0.0019786134
231	0x3cb036fe	0.021510597
232	0x3d32f17b	0.043687325
233	0x3d81cd56	0.06337993
234	0x3d8c967b	0.06864639
235	0x3c91268e	0.01771858
236	0xbca6dbe5	-0.020368526
237	0x3d1525f5	0.03641315
238	0x3d5e452c	0.054265186
239	0x3dd9f48e	0.10642348
240	0x3dad869b	0.084729396
241	0x3d973079	0.07382292
242	0x3e0aaf41	0.13543417
243	0x3e305edc	0.17223686
244	0x3e219db4	0.15782815
245	0x3ddd7e55	0.108151115
246	0x3d3e5c19	0.04647455
247	0x3d425d11	0.047452036
248	0x3cbb0a34	0.022832014
249	0x3da5afc0	0.08090162
250	0xbc674eb3	-0.014117884
251	0xbdac408b	-0.08410748
252	0xbcc724fb	-0.024309626
253	0xbdd2682c	-0.102737755
254	0xbe0f6ab6	-0.1400555
255	0xbc523ca2	-0.012831839

conv2.bias f4 [20]
0	0x3d00cff1	0.03144831
1	0xbd3a40f2	-0.045472093
2	0xbcb9ee57	-0.022696657
3	0xbdb5d97c	-0.088793725
4	0xbc6cc446	-0.014451092
5	0x3be99935	0.0071288594
6	0x3da29c86	0.07940011
7	0xbd67ad32	-0.056561656
8	0xbcff28cd	-0.031147385
9	0xbd69ad8b	-0.05705027
10	0xbb81da10	-0.0039627627
11	0x3d28dca8	0.04122606
12	0xbd0ab51c	-0.033864126
13	0xbd180fa4	-0.03712429
14	0x3d15d098	0.036575884
15	0xbd9cc175	-0.076540865
16	0xbbd5394c	-0.0065070745
17	0xbd3b3df4	-0.04571338
18	0x3cd46283	0.02592588
19	0x3cd68df0	0.026190728

fc1.weight f4 [50, 320]
0	0x3d2bc760	0.041938186
1	0x3d859c8e	0.06524001
2	0x3d44482c	0.04792039
3	0x3d76fcb4	0.06029959
4	0xbd3e6f5c	-0.04649292
5	0xbda9c4cd	-0.0828949
6	0xbcf270aa	-0.029594738
7	0xbc027e2c	-0.007964652
8	0xbe1b2627	-0.15151273
9	0xbccd98f3	-0.025097346
10	0xbd732d99	-0.059369657
11	0x3d90a63e	0.07062958
12	0x39e824e5	0.00044277977
13	0x3d5897c5	0.052879114
14	0x3dc42917	0.0957815
15	0x3e3fb6d4	0.18722087
16	0x3a24197c	0.0006259901
17	0x3c2d1437	0.010563902
18	0xbda258d7	-0.07927101
19	0xbda7d9db	-0.081958495
20	0xbd579bb9	-0.052638743
21	0xbd74b93b	-0.059746962
22	0xbe052fd7	-0.1300653
23	0x3c46fdd9	0.012145483
24	0xbcf05c1a	-0.029340792
25	0xbc1b4b94	-0.009478468
26	0xbcf63ee9	-0.030059295
27	0x3d8e066a	0.06934817
28	0xbd244ea7	-0.04011407
29	0xbcc2335c	-0.02370613
30	0x3d9e6cdb	0.07735606
31	0x3e0bfd89	0.13670935
32	0x3c1094bf	0.008824526
33	0x3d475e3c	0.048673853
34	0x3d6ab744	0.057303682
35	0x3cff0bae	0.031133499
36	0xbda0958c	-0.07841024
37	0x3c8ac335	0.016938785
38	0xbceec706	-0.029147636
39	0x3df0c358	0.11756009
40	0x3d7e7d47	0.062131193
41	0x3c24cd74	0.0100587495
42	0xbb8fce99	-0.004388642
43	0x3b7081fb	0.0036698568
44	0xbcb8c21f	-0.022553502
45	0x3d7d6be2	0.061870463
46	0xbdfbf9bb	-0.12303492
47	0xbe594337	-0.21217047
48	0x3da3054c	0.07959995
49	0x3d142673	0.03616948
50	0x3dc98441	0.098396786
51	0xbd0e73da	-0.034778453
52	0x3c736c0c	0.014857303
53	0xbd51e4c1	-0.051243547
54	0x3d11f064	0.035629645
55	0x3cbee73e	0.023303624
56	0xbd196724	-0.03745188
57	0x3c8867d3	0.01665107
58	0x3c25c5a1	0.010117919
59	0xbdb45592	-0.08805384
60	0xbdbf9307	-0.09354215
61	0xbd25fca6	-0.040524147
62	0xbe233f09	-0.15942015
63	0xbe056a84	-0.13028914
64	0x3d4d14c2	0.050068624
65	0x3dc2e361	0.09516025
66	0x3e331ac8	0.17490685
67	0x3dd37e3e	0.10326813
68	0x3d5f5bc8	0.05453089
69	0xbb6a3b96	-0.0035741082
70	0x3d25a574	0.04044099
71	0xbcb05b70	-0.021527976
72	0xbc6329a5	-0.013864909
73	0xbd34e8aa	-0.0441672
74	0x3d86a1e2	0.065738454
75	0xbd5e8a0d	-0.054330874
76	0x3cd559f4	0.02604387
77	0xbbbd2d85	-0.0057732486
78	0xbd8169f6	-0.063190386
79	0xbdbc1c5a	-0.09185095
80	0x3cfd572d	0.030925358
81	0x3e06745c	0.13130325
82	0x3dc4ef07	0.09615903
83	0x3b608bfa	0.003426312
84	0xba3f0cd4	-0.00072879833
85	0xbd20ab02	-0.039225586
86	0xbde1020c	-0.109867185
87	0xbe3380eb	-0.17529647
88	0xbd67fd80	-0.05663824
89	0xbd0146d2	-0.03156168
90	0x3d08bbc2	0.033382185
91	0xbd4bf19f	-0.049790975
92	0x3d4237e3	0.04741658
93	0x3dc1e96a	0.09468348
94	0x3d03b143	0.03215147
95	0xbd4c0fdd	-0.049819816
96	0xbd3c1003	-0.045913707
97	0x3b8f100a	0.0043659257
98	0x3da7b95c	0.08189651
99	0xbca6d4fa	-0.020365227
100	0x3cd0f999	0.025509642
101	0x3d747e10	0.059690535
102	0xbd5b25fa	-0.053503014
103	0x3d585c99	0.052822683
104	0x3d675b8c	0.05648379
105	0x3cc9656a	0.02458449
106	0xbe36f5f0	-0.17867255
107	0xbd023dc1	-0.031797174
108	0x3c4fbe6b	0.0126796765
109	0xbbb43815	-0.0054998496
110	0x3c0d3279	0.008617991
111	0xbe08b963	-0.1335197
112	0x3befad4e	0.0073143607
113	0xbd0b79df	-0.034051772
114	0x3ce6b7f2	0.028163884
115	0xbc6bd2da	-0.014393533
116	0xbd7d1ee7	-0.06179705
117	0x3cd02803	0.025409704
118	0xbb9c6f8f	-0.004774041
119	0x3de26e11	0.1105615
120	0x3c7257dd	0.014791456
121	0x3ddd8be0	0.10817695
122	0x3d7c1fb0	0.061553657
123	0x3da177bd	0.078841664
124	0xbd4052cf	-0.046953972
125	0xbcbf8e04	-0.023383148
126	0xbdf5633e	-0.119818196
127	0xbce54ae2	-0.027989808
128	0x393d2e89	0.0001804178
129	0x3dc81f08	0.09771544
130	0x3d84d9d7	0.06486862
131	0x3c267482	0.010159614
132	0x3cf1a6da	0.029498506
133	0xbcb71e72	-0.022353385
134	0xbcf608a3	-0.030033415
135	0xbd9aa250	-0.0755049
136	0xbdeaaf86	-0.1145926
137	0xbdd04e38	-0.10171169
138	0xbe23d3b2	-0.15998724
139	0x3bf05c64	0.0073352326
140	0x3bc222d8	0.005924564
141	0xbce90c31	-0.028448196
142	0x3d8017f4	0.06254569
143	0x3d313bbd	0.04326986
144	0x3e0073f4	0.12544233
145	0x3cced2c0	0.025246978
146	0xbd03366d	-0.032034326
147	0xbe00af5d	-0.12566896
148	0x3e061d13	0.13097028
149	0xbd51ba96	-0.051203333
150	0x3c2ccefc	0.010547396
151	0xbd1ee0cb	-0.038788598
152	0x3d9d10ea	0.07669242
153	0x3ca0a431	0.019609543
154	0x3cf9df6e	0.030502047
155	0x3cf07ff7	0.029357893
156	0x3db61352	0.08890404
157	0x3d6860aa	0.05673281
158	0xbd57bd8b	-0.052670997
159	0x3d7ebe51	0.06219322
160	0xbde0e609	-0.10981376
161	0xbd87710a	-0.06613357
162	0xbd513229	-0.051073227
163	0x3ca1032d	0.019654835
164	0xbd767179	-0.06016681
165	0x3db57206	0.08859639
166	0x3d61041b	0.054935556
167	0x3d026b31	0.031840507
168	0x3d5840ef	0.0527963
169	0x3db5878c	0.08863744
170	0x3d719b2c	0.058985874
171	0x3d7e10e0	0.062027812
172	0xbd66d21b	-0.056352716
173	0xbd77f490	-0.060535967
174	0x3a8a83b7	0.0010567819
175	0x3e604877	0.21902643
176	0xbd62617d	-0.055268753
177	0x3bfd49be	0.007729738
178	0x3df7d44a	0.12101038
179	0xbd3f7fbc	-0.046752676
180	0xbc699504	-0.0142567195
181	0xbd3e5c16	-0.04647454
182	0x3b6935be	0.0035585011
183	0x3b71386c	0.0036807312
184	0xbc2eb364	-0.010662887
185	0x3d84e30b	0.064886175
186	0x3dfbbb26	0.12291555
187	0x3d86a414	0.06574264
188	0xbdb0005d	-0.08593819
189	0xbc824270	-0.01590082
190	0xbdd50e26	-0.10403089
191	0xbcb91e8e	-0.022597577
192	0x3cfd3d31	0.030912967
193	0x3c2d9f7e	0.010597108
194	0xbca60d09	-0.020269888
195	0xbd35363e	-0.044241183
196	0x3b84d4a5	0.0040536695
197	0x3caf1264	0.021371074
198	0xbcb68671	-0.022280904
199	0x3d04af96	0.032394014
200	0x3cab4ce0	0.02091068
201	0xbc0fd6a2	-0.0087792
202	0x3c817076	0.015800696
203	0x3c60058d	0.013673198
204	0xbd3cb60e	-0.04607206
205	0x3cb8cb02	0.02255774
206	0xbd6820dc	-0.056671962
207	0xbc9c0796	-0.019046586
208	0x3d9b16a7	0.0757268
209	0x3d99d92a	0.07512124
210	0x3d17e2bd	0.03708147
211	0xbd55e1ff	-0.05221748
212	0xbd793444	-0.06084086
213	0x3d654e0e	0.055982642
214	0x3cefb1c4	0.02925957
215	0x3c6935f5	0.014234056
216	0xbc133cbc	-0.008986648
217	0x3d1aaa34	0.037759975
218	0xbd50ab89	-0.05094484
219	0xbdc59f21	-0.09649492
220	0xbd5bd8f7	-0.05367371
221	0xbd981471	-0.07425774
222	0xbdddaf79	-0.108244844
223	0xbd50269d	-0.050818074
224	0x3951dd18	0.00020014157
225	0x3d51061e	0.051031224
226	0x3e01d997	0.1268066
227	0x3d45c4b9	0.048283312
228	0x3c8888b5	0.01666675
229	0xbc535bd4	-0.0129003115
230	0x3ceb76ed	0.028743232
231	0xbdb9412d	-0.090456344
232	0xbde40691	-0.11134065
233	0xbc15d6a2	-0.009145411
234	0xbc3559b1	-0.011068747
235	0xbdaf6b19	-0.08565349
236	0xbd20193a	-0.039086558
237	0x3e0884e4	0.13331944
238	0x3de51018	0.1118471
239	0x3bab5f25	0.005229848
240	0xbb5e8278	-0.0033952277
241	0xbd52b7ef	-0.051444944
242	0xbd35c64b	-0.04437856
243	0xbdae1511	-0.08500112
244	0xb9ef2847	-0.0004561564
245	0x3d292fb3	0.041305255
246	0x3c221c2f	0.009894415
247	0xbde154b6	-0.110024855
248	0xbe0b9d42	-0.13634208
249	0xbdb74187	-0.08948045
250	0xbda3aa0e	-0.0799142
251	0xbdc8fd03	-0.09813883
252	0xbdd7ea51	-0.10542739
253	0xbbc09164	-0.005876707
254	0x3db02aa6	0.086018845
255	0x3df92770	0.12165725

fc1.bias f4 [50]
0	0x3dd95f22	0.10613848
1	0x3d82d935	0.06389085
2	0x3decb472	0.11557855
3	0x3e194479	0.14967526
4	0x3d2c2e96	0.042036615
5	0x3d5fe608	0.054662734
6	0x3de3f6aa	0.11131032
7	0xbd27e01f	-0.040985223
8	0x3e32b577	0.17452036
9	0x3dc7fa4c	0.09764537
10	0x3d892364	0.06696203
11	0xbd4bbf15	-0.049742777
12	0x3da54d76	0.08071415
13	0x3b9f22c8	0.004856441
14	0xbb6859d4	-0.0035453932
15	0x3ce6a67e	0.028155562
16	0xbcd8a904	-0.02644778
17	0x3cbc1b14	0.02296213
18	0x3dacaa87	0.08430963
19	0x3b3bbff2	0.0028648344
20	0x3d665dbc	0.056241736
21	0x3decd098	0.115632236
22	0x3d929f25	0.07159261
23	0x3d8023aa	0.062568024
24	0xbaa35ded	-0.0012463905
25	0x3d5b6ac0	0.0535686
26	0x3da1b257	0.07895344
27	0x3da0f989	0.07860095
28	0x3d95d276	0.07315533
29	0x3dcf780e	0.101303205
30	0x3de453d2	0.111488
31	0xbd094aec	-0.033518717
32	0x3cc2c7fa	0.023776997
33	0x3d9ff7ac	0.078109115
34	0x3e315721	0.17318393
35	0x3d5645e0	0.05231273
36	0xbd06986a	-0.032860197
37	0xba6ccaa2	-0.000903288
38	0x3dd665a2	0.10468604
39	0x3dfebe52	0.124386445
40	0x3b51e2df	0.0032026095
41	0x3d77cfe6	0.060501
42	0x3c22e854	0.009943087
43	0x3e305ed3	0.17223673
44	0x3e2c7c4a	0.16844288
45	0x3df53b56	0.11974208
46	0x3d487605	0.048940677
47	0x3dc359f7	0.09538644
48	0x3e2f9222	0.17145589
49	0x3ca24fc8	0.019813433

fc2.weight f4 [10, 50]
0	0xbbd4e9da	-0.006497604
1	0x3e0056dc	0.12533134
2	0x3df97209	0.121799536
3	0xbe28f102	-0.16498187
4	0x3ded199b	0.115771495
5	0x3e0b2206	0.13587198
6	0xbe2e612d	-0.17029257
7	0x3d3a447a	0.04547546
8	0xbe89a420	-0.2688303
9	0xbe20764e	-0.1567013
10	0x3df3da9e	0.11906932
11	0x3d54ab8b	0.05192141
12	0xbe82d0a3	-0.25549802
13	0xbe3fc762	-0.18728402
14	0xbe10645b	-0.14100783
15	0x3e064d45	0.13115413
16	0xbdb013fc	-0.08597562
17	0xbe7fcbea	-0.24980131
18	0xbe3dd120	-0.18536806
19	0x3e2df410	0.16987634
20	0xbd8e383c	-0.069443196
21	0x3d65754d	0.05602007
22	0xbe9d7e8b	-0.30760607
23	0xbd6638e7	-0.05620661
24	0xbe21aeb8	-0.15789306
25	0xbe003af4	-0.12522489
26	0xbe550a69	-0.20804752
27	0xbdff4d84	-0.12465957
28	0xbe822c36	-0.25424355
29	0xbe64f31d	-0.22358365
30	0x3dc1b914	0.09459129
31	0x3acfcc8b	0.0015853805
32	0x3db3c114	0.08777061
33	0xbe400307	-0.18751155
34	0xbe490651	-0.19631316
35	0x3d97060e	0.07374202
36	0xbe9bb841	-0.30414012
37	0x3e094384	0.13404661
38	0xbdb10af2	-0.08644666
39	0x3d89af97	0.06722944
40	0xbe060362	-0.13087228
41	0xbe8180b2	-0.252935
42	0x3e0e25d2	0.13881615
43	0x3e0e1e5c	0.13878769
44	0xbe50a2c1	-0.20374586
45	0x3e37d3bc	0.17951864
46	0x3decd074	0.11563197
47	0x3e265dc7	0.1624671
48	0xbe554283	-0.20826153
49	0x3debeb31	0.115194686
50	0x3e09e048	0.13464463
51	0x3e0974ba	0.13423434
52	0x3b9fac52	0.004872837
53	0x3e3bb446	0.18330488
54	0xbe1372ef	-0.14399312
55	0xbe711479	-0.23542966
56	0x3b011059	0.0019693582
57	0xbe23c733	-0.15993957
58	0x3e2fb32e	0.17158195
59	0x3e196f41	0.14983846
60	0xbddc24f0	-0.10749233
61	0xbe49e6bb	-0.19716923
62	0x3e074589	0.1321012
63	0xbe0ddc48	-0.13853562
64	0xbdcbac28	-0.099449456
65	0xbe52a5e3	-0.20571093
66	0xbe05b8dc	-0.130588
67	0xbde2c622	-0.11072947
68	0x3d17e542	0.03708387
69	0xbe42944f	-0.19001888
70	0xbe2790a9	-0.16363777
71	0x3dcd7d7d	0.100337006
72	0xbdeee8b7	-0.116654806
73	0xbd332d10	-0.043744147
74	0xbd9816c5	-0.07426218
75	0x3d057fe5	0.032592673
76	0x3c9251ef	0.017861335
77	0x3e19c49d	0.15016408
78	0xbd89fb02	-0.06737329
79	0x3d65e540	0.056126833
80	0x3e0cc1f6	0.13745865
81	0xbe1bf9fd	-0.15232082
82	0xbddd09a5	-0.10792855
83	0x3d1e8175	0.03869768
84	0x3e050593	0.12990408
85	0xbd75da62	-0.06002272
86	0xbe0331f3	-0.12812023
87	0xbe34c732	-0.17654112
88	0x3e10a324	0.14124733
89	0x3dc2a6d7	0.095044784
90	0xbe99e44f	-0.30056998
91	0xbdf7d713	-0.12101569
92	0xbe5ce29b	-0.21570818
93	0x3e01f652	0.1269162
94	0x3de69424	0.11258724
95	0x3e0da0b5	0.13830836
96	0xbe97f8ef	-0.2968211
97	0x3de83153	0.11337533
98	0x3e2e0407	0.16993724
99	0xbe1deaeb	-0.15421645
100	0x3e161894	0.14657813
101	0xbd81c5dd	-0.063365676
102	0x3e0e4312	0.13892773
103	0xbdab81b9	-0.08374352
104	0xbe35f0e1	-0.1776767
105	0xbde21283	-0.11038687
106	0x3e01cd40	0.12675953
107	0xbd9564d5	-0.07294623
108	0xbe1dcca8	-0.15410101
109	0xbdb74496	-0.089486286
110	0x3e266324	0.16248757
111	0xbdf1efe2	-0.11813332
112	0xbe388314	-0.18018752
113	0xbe40b9a6	-0.1882082
114	0xbd3e5628	-0.046468884
115	0xbd589e0d	-0.052885104
116	0xbe20108a	-0.15631309
117	0xbd425c98	-0.047451586
118	0xbc13c111	-0.009018199
119	0x3e131045	0.14361675
120	0xbe6da7f9	-0.23208608
121	0x3d711fcc	0.058868214
122	0xbd9875de	-0.074443564
123	0xbe3dd4b1	-0.18538167
124	0x3da9de13	0.082943104
125	0x3d31918f	0.043351706
126	0xbda5e290	-0.08099854
127	0xbe563a5e	-0.20920703
128	0xbddbe41c	-0.10736868
129	0x3d6357af	0.055503543
130	0xbe42b8e2	-0.1901584
131	0x3d700c21	0.058605317
132	0xbe38c8fa	-0.18045416
133	0x3d89eec9	0.06734998
134	0x3de724ef	0.112863414
135	0x3da80ff4	0.08206168
136	0xbe10ba77	-0.1413363
137	0x3dd7e894	0.10542408
138	0xbdbfdcec	-0.093683094
139	0xbd7b1572	-0.06129975
140	0x3d8e6230	0.069523215
141	0x3cf42c8e	0.029806402
142	0x3c3ad325	0.01140288
143	0x3e0020f7	0.12512575
144	0x3de6c159	0.11267347
145	0xbe05f1c9	-0.13080515
146	0xbd07fb55	-0.033198673
147	0x3e08c40c	0.13356036
148	0x3e4fd103	0.20294575
149	0x3debdc94	0.11516681
150	0xbe03e331	-0.12879635
151	0x3d5c5145	0.053788442
152	0x3e101dec	0.14073914
153	0xbe303dfa	-0.17211142
154	0xbe46838d	-0.1938612
155	0xbe48ab5b	-0.19596617
156	0x3e0b6cf6	0.13615784
157	0xbc5bba53	-0.013411122
158	0xbe00b393	-0.12568502
159	0xbe5fb6ee	-0.21847126
160	0xbddd7ee1	-0.10815216
161	0x3daf8843	0.08570912
162	0xbe103dd3	-0.14086084
163	0x3e11b8a6	0.14230594
164	0xbda6ed07	-0.08150678
165	0x3da2d5c5	0.079509296
166	0xbe29f678	-0.16597927
167	0x3e1bae60	0.15203238
168	0x3e086c77	0.13322626
169	0x3d23d581	0.039998535
170	0xbe1e5088	-0.15460408
171	0x3ddc976a	0.107710674
172	0xbdc109b0	-0.09425676
173	0xbe4cab1a	-0.19987145
174	0x3d9cd408	0.07657629
175	0x3d8c6e5d	0.068569876
176	0x3e055ed4	0.13024455
177	0x3e172e72	0.14763811
178	0xbdc8c628	-0.0980342
179	0x3d3ebfc1	0.04656959
180	0xbdb95057	-0.09048527
181	0x3e15bafe	0.14622113
182	0xbdc1d64c	-0.09464702
183	0x3d8478d8	0.064683616
184	0xbe4872d2	-0.1957505
185	0x3d9ed1c6	0.07754855
186	0x3def70d8	0.11691445
187	0xbd44e266	-0.048067473
188	0xbe3afe0c	-0.18260974
189	0x3d7497ac	0.059714958
190	0xbe0a4988	-0.13504612
191	0xbda53947	-0.080675654
192	0xbdaaf67b	-0.08347794
193	0xbdbf2fad	-0.09335265
194	0xbceab0f2	-0.028648827
195	0xbe0b3187	-0.13593112
196	0xbe6def52	-0.23235825
197	0xbdf2dea1	-0.11858869
198	0x3d836459	0.06415624
199	0x3d9c49af	0.076312415
200	0xbcfd7e70	-0.03094408
201	0xbe27107e	-0.16314885
202	0xbe45aa09	-0.19303145
203	0xbde371bc	-0.111056775
204	0xbe068e41	-0.13140203
205	0x3dfcc879	0.123429246
206	0xbe1ac0a1	-0.15112545
207	0xbb9002d6	-0.0043948693
208	0x3e1be30d	0.15223332
209	0x3e0966c9	0.13418116
210	0x3e134a3f	0.14383791
211	0x3dc4ae89	0.096036024
212	0x3e0f35dd	0.13985391
213	0xbda02cca	-0.07821043
214	0xbde9cbf0	-0.11415851
215	0xbe175406	-0.14778146
216	0x3de11b42	0.10991527
217	0xbdbe5e60	-0.09295344
218	0x3e13ab66	0.14420852
219	0xba07f446	-0.0005186241
220	0xbd6e812c	-0.058228657
221	0x3e02c276	0.12769493
222	0xbdf08a83	-0.11745169
223	0x3dd6d468	0.10489732
224	0x3de31153	0.11087289
225	0xbe5c9df5	-0.21544631
226	0x3c8653d1	0.016397389
227	0xbe327237	-0.17426382
228	0x3e19dd61	0.15025856
229	0x3d245abb	0.04012559
230	0xbde22365	-0.11041907
231	0x3da37f6e	0.0798329
232	0x3c0c47d3	0.008562046
233	0xbd9a002f	-0.07519566
234	0x3e0d577d	0.13802905
235	0xbe2f1a30	-0.17099833
236	0x3e01c29e	0.12671897
237	0xbe28094e	-0.164098
238	0x3e2dd089	0.16974081
239	0xbe34ac9c	-0.1764397
240	0x3d9c11ad	0.07620559
241	0xbd5aade3	-0.053388488
242	0xbde1eca7	-0.11031466
243	0xbe4157a6	-0.18881091
244	0xbddb2f1f	-0.10702347
245	0xbd2013e8	-0.039081484
246	0xbd2a13ce	-0.041522793
247	0x3e128601	0.14308931
248	0xbdff0ede	-0.124540076
249	0xbdc29c50	-0.095024705
250	0xbd6bbe53	-0.057554554
251	0x3e0b83fe	0.1362457
252	0x3e005049	0.12530626
253	0x3c4ca0cb	0.012489508
254	0x3dbb899d	0.09157107
255	0xbe02280a	-0.12710586

fc2.bias f4 [10]
0	0x3dd5c177	0.10437291
1	0x3e35f973	0.17770939
2	0xbd96ecad	-0.07369361
3	0xbd865b41	-0.06560374
4	0x3cd68de0	0.026190698
5	0x3de02874	0.10945216
6	0x3d8fb0d1	0.07016147
7	0xbd7342b8	-0.0593898
8	0xbbbc3a4d	-0.0057442547
9	0xbe7081a3	-0.23486952
